…
Pruned model will be saved in ./trained_models_new/cifar/resnet18/nat/pruned1_epoch100/init_pure/pruned_lr0.01.pth
Final mask will be saved in ./trained_models_new/cifar/resnet18/nat/pruned1_epoch100/init_pure/pruned_lr0.01_mask_r80.npy
Log will be saved in ./trained_models_new/cifar/resnet18/nat/pruned1_epoch100/init_pure/pruned_lr0.01.log

model loading from ./trained_models_new/cifar/resnet18/init/pure_resnet18_init.pth
----------------------------------------------------------------
        Layer (type)               Output Shape         Param #
================================================================
      MaskedConv2d-1           [-1, 64, 32, 32]           1,728
        MaskedBN2d-2           [-1, 64, 32, 32]             128
      MaskedConv2d-3           [-1, 64, 32, 32]          36,864
        MaskedBN2d-4           [-1, 64, 32, 32]             128
      MaskedConv2d-5           [-1, 64, 32, 32]          36,864
        MaskedBN2d-6           [-1, 64, 32, 32]             128
        BasicBlock-7           [-1, 64, 32, 32]               0
      MaskedConv2d-8           [-1, 64, 32, 32]          36,864
        MaskedBN2d-9           [-1, 64, 32, 32]             128
     MaskedConv2d-10           [-1, 64, 32, 32]          36,864
       MaskedBN2d-11           [-1, 64, 32, 32]             128
       BasicBlock-12           [-1, 64, 32, 32]               0
     MaskedConv2d-13          [-1, 128, 16, 16]          73,728
       MaskedBN2d-14          [-1, 128, 16, 16]             256
     MaskedConv2d-15          [-1, 128, 16, 16]         147,456
       MaskedBN2d-16          [-1, 128, 16, 16]             256
     MaskedConv2d-17          [-1, 128, 16, 16]           8,192
       MaskedBN2d-18          [-1, 128, 16, 16]             256
       BasicBlock-19          [-1, 128, 16, 16]               0
     MaskedConv2d-20          [-1, 128, 16, 16]         147,456
       MaskedBN2d-21          [-1, 128, 16, 16]             256
     MaskedConv2d-22          [-1, 128, 16, 16]         147,456
       MaskedBN2d-23          [-1, 128, 16, 16]             256
       BasicBlock-24          [-1, 128, 16, 16]               0
     MaskedConv2d-25            [-1, 256, 8, 8]         294,912
       MaskedBN2d-26            [-1, 256, 8, 8]             512
     MaskedConv2d-27            [-1, 256, 8, 8]         589,824
       MaskedBN2d-28            [-1, 256, 8, 8]             512
     MaskedConv2d-29            [-1, 256, 8, 8]          32,768
       MaskedBN2d-30            [-1, 256, 8, 8]             512
       BasicBlock-31            [-1, 256, 8, 8]               0
     MaskedConv2d-32            [-1, 256, 8, 8]         589,824
       MaskedBN2d-33            [-1, 256, 8, 8]             512
     MaskedConv2d-34            [-1, 256, 8, 8]         589,824
       MaskedBN2d-35            [-1, 256, 8, 8]             512
       BasicBlock-36            [-1, 256, 8, 8]               0
     MaskedConv2d-37            [-1, 512, 4, 4]       1,179,648
       MaskedBN2d-38            [-1, 512, 4, 4]           1,024
     MaskedConv2d-39            [-1, 512, 4, 4]       2,359,296
       MaskedBN2d-40            [-1, 512, 4, 4]           1,024
     MaskedConv2d-41            [-1, 512, 4, 4]         131,072
       MaskedBN2d-42            [-1, 512, 4, 4]           1,024
       BasicBlock-43            [-1, 512, 4, 4]               0
     MaskedConv2d-44            [-1, 512, 4, 4]       2,359,296
       MaskedBN2d-45            [-1, 512, 4, 4]           1,024
     MaskedConv2d-46            [-1, 512, 4, 4]       2,359,296
       MaskedBN2d-47            [-1, 512, 4, 4]           1,024
       BasicBlock-48            [-1, 512, 4, 4]               0
     MaskedLinear-49                   [-1, 10]           5,130
================================================================
Total params: 11,173,962
Trainable params: 11,173,962
Non-trainable params: 0
----------------------------------------------------------------
Input size (MB): 0.01
Forward/backward pass size (MB): 11.25
Params size (MB): 42.63
Estimated Total Size (MB): 53.89
----------------------------------------------------------------

Pruning ratio = 0.00
…
