…
Pruned model will be saved in ./trained_models_new/cifar/vgg16/nat/pruned1_epoch100_r80/init_pure/pruned_lr0.01_nn.pth
Final mask will be saved in ./trained_models_new/cifar/vgg16/nat/pruned1_epoch100_r80/init_pure/pruned_lr0.01_nn_mask_r80.npy
Log will be saved in ./trained_models_new/cifar/vgg16/nat/pruned1_epoch100_r80/init_pure/pruned_lr0.01_nn.log

model loading from ./trained_models_new/cifar/vgg16/init/pure_vgg16_init.pth
----------------------------------------------------------------
        Layer (type)               Output Shape         Param #
================================================================
      MaskedConv2d-1           [-1, 64, 32, 32]           1,728
        MaskedBN2d-2           [-1, 64, 32, 32]             128
              ReLU-3           [-1, 64, 32, 32]               0
      MaskedConv2d-4           [-1, 64, 32, 32]          36,864
        MaskedBN2d-5           [-1, 64, 32, 32]             128
              ReLU-6           [-1, 64, 32, 32]               0
         MaxPool2d-7           [-1, 64, 16, 16]               0
      MaskedConv2d-8          [-1, 128, 16, 16]          73,728
        MaskedBN2d-9          [-1, 128, 16, 16]             256
             ReLU-10          [-1, 128, 16, 16]               0
     MaskedConv2d-11          [-1, 128, 16, 16]         147,456
       MaskedBN2d-12          [-1, 128, 16, 16]             256
             ReLU-13          [-1, 128, 16, 16]               0
        MaxPool2d-14            [-1, 128, 8, 8]               0
     MaskedConv2d-15            [-1, 256, 8, 8]         294,912
       MaskedBN2d-16            [-1, 256, 8, 8]             512
             ReLU-17            [-1, 256, 8, 8]               0
     MaskedConv2d-18            [-1, 256, 8, 8]         589,824
       MaskedBN2d-19            [-1, 256, 8, 8]             512
             ReLU-20            [-1, 256, 8, 8]               0
     MaskedConv2d-21            [-1, 256, 8, 8]         589,824
       MaskedBN2d-22            [-1, 256, 8, 8]             512
             ReLU-23            [-1, 256, 8, 8]               0
        MaxPool2d-24            [-1, 256, 4, 4]               0
     MaskedConv2d-25            [-1, 512, 4, 4]       1,179,648
       MaskedBN2d-26            [-1, 512, 4, 4]           1,024
             ReLU-27            [-1, 512, 4, 4]               0
     MaskedConv2d-28            [-1, 512, 4, 4]       2,359,296
       MaskedBN2d-29            [-1, 512, 4, 4]           1,024
             ReLU-30            [-1, 512, 4, 4]               0
     MaskedConv2d-31            [-1, 512, 4, 4]       2,359,296
       MaskedBN2d-32            [-1, 512, 4, 4]           1,024
             ReLU-33            [-1, 512, 4, 4]               0
        MaxPool2d-34            [-1, 512, 2, 2]               0
     MaskedConv2d-35            [-1, 512, 2, 2]       2,359,296
       MaskedBN2d-36            [-1, 512, 2, 2]           1,024
             ReLU-37            [-1, 512, 2, 2]               0
     MaskedConv2d-38            [-1, 512, 2, 2]       2,359,296
       MaskedBN2d-39            [-1, 512, 2, 2]           1,024
             ReLU-40            [-1, 512, 2, 2]               0
     MaskedConv2d-41            [-1, 512, 2, 2]       2,359,296
       MaskedBN2d-42            [-1, 512, 2, 2]           1,024
             ReLU-43            [-1, 512, 2, 2]               0
        AvgPool2d-44            [-1, 512, 1, 1]               0
          Flatten-45                  [-1, 512]               0
     MaskedLinear-46                  [-1, 512]         262,656
       MaskedBN1d-47                  [-1, 512]           1,024
             ReLU-48                  [-1, 512]               0
     MaskedLinear-49                   [-1, 10]           5,130
================================================================
Total params: 14,987,722
Trainable params: 14,987,722
Non-trainable params: 0
----------------------------------------------------------------
Input size (MB): 0.01
Forward/backward pass size (MB): 6.58
Params size (MB): 57.17
Estimated Total Size (MB): 63.77
----------------------------------------------------------------

Pruning ratio = 0.00
…
